data.pth (torch, 5015 bytes, 6 tensors)

l1.weight f4 [8, 54]
-0.16577847 0.46337774 -0.27586126 -0.26454931 0.12609635 -0.18477705 -0.011720485 -0.16800229
-0.18867509 -0.27531362 -0.07994869 -0.022752313 0.46298754 -0.018709764 0.5150605 0.13972825
-0.12792112 -0.18424943 0.26130873 -0.18430258 -0.014335008 -0.188099 -0.1913779 -0.36150742
-0.13400875 -0.1334563 0.67279047 0.66055053 0.50090384 0.6571822 -0.0800652 -0.053310305
-0.15799242 -0.40461674 0.6033676 0.01435439 0.47163257 -0.16117756 0.04743134 -0.029462328
-0.13234846 0.3649495 0.0224915 0.53250647 -0.27819768 0.6143524 -0.32295585 -0.015426146
0.3183011 0.66793036 0.03129484 0.35563442 -0.056412265 0.13870688 0.47001088 -0.1305293
0.6258715 0.4178285 0.6541969 0.6125559 0.72906333 0.6077013 0.45829606 0.52583003
0.1912947 -0.33241472 0.47045255 -0.27588218 -0.19879724 -0.2079311 0.24297173 0.6520572
0.34607995 0.2846633 0.3312293 0.39998052 0.24016269 0.21589428 0.15854448 0.33254033
0.59111285 -0.6139355 0.306782 -0.6402407 0.33882105 -0.43808436 0.3880509 0.45457843
-0.22070132 -0.45381808 0.25900728 0.42464754 0.5428503 0.59271765 0.24128425 0.49105325
-0.36311322 -0.17403118 0.20620567 -0.05043004 0.36892477 0.23434292 0.5126779 0.50062734
-0.20522444 0.41900817 0.5518687 0.58797127 -0.19279884 0.46175355 -0.25211683 -0.1600914
0.09052296 0.4672808 0.15860182 -0.075347126 0.08228816 -0.18937793 -0.13314657 -0.13305606
0.53364414 -0.105383724 0.4840113 0.06858765 -0.22085978 0.5456653 0.46323705 -0.35417756
-0.118063465 -0.3539233 -0.35390282 -0.5326334 -0.16212855 -0.37582967 0.6440435 0.7665136
0.28868935 0.3874489 0.4341495 -0.0397214 -0.026117066 -0.16948067 0.62850446 -0.12779818
0.2613061 -0.056938764 0.29835203 0.21835074 0.3846317 0.6233199 -0.12071445 0.5843612
-0.046387278 0.6169146 -0.41977042 0.09621383 0.27795833 0.60448474 -0.13865206 0.4147856
0.06512087 0.21874706 -0.14368443 -0.24845581 -0.40637043 0.44380865 0.21144137 -0.034304317
-0.27814388 -0.41581944 -0.46240413 -0.25064874 0.4627357 0.45334822 0.006516932 0.5745847
0.023411669 0.4138443 0.445439 -0.014805539 0.27024776 0.78605014 -0.19175738 0.7742815
0.6830655 0.76660615 0.16801329 0.42225876 0.273153 -0.061296836 0.12982251 0.026372798
0.19564584 0.476685 -0.049615912 -0.18015955 -0.12822796 0.30821916 0.13862525 -0.3287042
-0.2599097 -0.044225514 0.23852791 0.3438716 0.33679828 -0.1639604 0.08842551 -0.17485465
-0.60803413 -0.27224785 0.44214994 0.41208407 0.51372164 0.34882 -0.19386363 -0.028329112
0.83794165 0.5460844 -0.18390667 -0.1101419 -0.4427605 0.671298 -0.13681428 -0.3832557
-0.262229 -0.33482486 -0.15748988 0.15523344 -0.3564739 0.27903476 0.16166216 0.09298377
-0.3354258 0.5077983 -0.21046619 -0.47284448 0.55752134 -0.45101628 -0.5267664 -0.2857453
-0.088254504 -0.21529539 -0.2200832 -0.022543063 -0.10267212 -0.062193234 0.5282805 0.19862203
0.35827062 -0.36976445 0.07451346 -0.021348204 0.10789535 -0.20486026 -0.19675872 -0.02083522
00000000: d5c1 29be d93f ed3e b03d 8dbe 0273 87be
00000010: 671f 013e 3236 3dbe 4707 40bc cb08 2cbe
00000020: 0b34 41be e8f5 8cbe 24bc a3bd 0f63 babc
00000030: b40c ed3e 3845 99bc 01db 033f ec14 0f3e
00000040: c1fd 02be e2ab 3cbe 42ca 853e d1b9 3cbe
00000050: 62dd 6abc 069d 40be 91f8 43be 8017 b9be
00000060: 9739 09be c5a8 08be ff3b 2c3f d719 293f
00000070: 3c3b 003f 183d 283f 39f9 a3bd e85b 5abd
00000080: c4c8 21be ed29 cfbe 4d76 1a3f ad2e 6b3c
00000090: d379 f13e bb0b 25be 5d47 423d fb5a f1bc
000000a0: 5b86 07be a9da ba3e 1840 b83c 5852 083f
000000b0: ed6f 8ebe 3346 1d3f 785a a5be f2bd 7cbc
000000c0: 5df8 a23e 7cfd 2a3f 052f 003d b715 b63e
000000d0: 8c10 67bd 2d09 0e3e 44a5 f03e 79a9 05be
000000e0: 1d39 203f 9eed d53e 7379 273f 77d0 1c3f
000000f0: e5a3 3a3f 5092 1b3f c8a5 ea3e cc9c 063f
00000100: c2e2 433e 4332 aabe 28df f03e 6e40 8dbe
00000110: 8191 4bbe e4eb 54be 95cd 783e 38ed 263f
00000120: 6431 b13e 63bf 913e e396 a93e 3fca cc3e
00000130: 35ed 753e 6413 5d3e 7c59 223e ba42 aa3e
00000140: 2c53 173f e02a 1dbf 8812 9d3e d1e6 23bf
00000150: f479 ad3e 984c e0be 9cae c63e 81be e83e
00000160: 87ff 61be d85a e8be 9a9c 843e 676b d93e
00000170: 3df8 0a3f 58bc 173f 3813 773e 556b fb3e
00000180: fae9 b9be 3b35 32be 9427 533e bb8f 4ebd
00000190: b5e3 bc3e 97f7 6f3e dc3e 033f 1d29 003f
000001a0: 5b26 52be 3d88 d63e 4447 0d3f 4985 163f
000001b0: 0f6d 45be f66a ec3e 7515 81be 00ef 23be
000001c0: 1a64 b93d 6e3f ef3e 8468 223e 984f 9abd
000001d0: b286 a83d 4aec 41be 9357 08be d93f 08be
000001e0: e79c 083f 6cd3 d7bd 54d0 f73e af77 8c3d
000001f0: 1129 62be b9b0 0b3f 682d ed3e c356 b5be
00000200: 42cb f1bd 6f35 b5be c032 b5be aa5a 08bf
00000210: 0705 26be bf6c c0be 09e0 243f 3c3a 443f
00000220: 17cf 933e b45f c63e d848 de3e e8b2 22bd
00000230: 75f3 d5bc 578c 2dbe abe5 203f 87dd 02be
00000240: eac9 853e 9f38 69bd 99c1 983e 5697 5f3e
00000250: 72ee c43e e591 1f3f 2339 f7bd b298 153f
00000260: 9600 3ebd 1dee 1d3f 26ec d6be c20b c53d
00000270: 8e50 8e3e 83bf 1a3f cefa 0dbe c75e d43e
00000280: 175e 853d 3bff 5f3e 0322 13be 336b 7ebe
00000290: c90f d0be e33a e33e 1684 583e af82 0cbd
000002a0: e068 8ebe 49e6 d4be 3cc0 ecbe 0855 80be
000002b0: b2eb ec3e 421d e83e fd8b d53b fc17 133f
000002c0: d4c9 bf3c 66e3 d33e 9510 e43e ee92 72bc
000002d0: ea5d 8a3e 953a 493f 0c5c 44be 5037 463f
000002e0: 61dd 2e3f 4d40 443f ad0b 2c3e 4d32 d83e
000002f0: b6da 8b3e 6412 7bbd 31f0 043e c40b d83c
00000300: 6257 483e 0e10 f43e 0e3a 4bbd bf7b 38be
00000310: 314e 03be e7ce 9d3e c7f3 0d3e eb4b a8be
00000320: e212 85be d025 35bd a940 743e f00f b03e
00000330: d370 ac3e 3ce5 27be 6f18 b53d 190d 33be
00000340: 20a8 1bbf 1264 8bbe 7a61 e23e affc d23e
00000350: 4383 033f 8998 b23e 3084 46be 7412 e8bc
00000360: 5883 563f 30cc 0b3f 0852 3cbe 1492 e1bd
00000370: 81b1 e2be 30da 2b3f 0b19 0cbe 173a c4be
00000380: e142 86be 2a6e abbe 0745 21be 84f5 1e3e
00000390: bf83 b6be a5dd 8e3e c48a 253e 466e be3d
000003a0: eebc abbe 12ff 013f 7384 57be ac18 f2be
000003b0: b8b9 0e3f 9beb e6be 2ada 06bf 354d 92be
000003c0: c7be b4bd 6576 5cbe 7e5d 61be 3bac b8bc
000003d0: c345 d2bd 55be 7ebd 643d 073f 9363 4b3e
000003e0: 3f6f b73e c451 bdbe 839a 983d 6ee2 aebc
000003f0: 3df8 dc3d e3c6 51be 1e7b 49be a0ae aabc

l1.bias f4 [8]
0.18427062 1.1053606 0.35393173 0.60804635 0.5268186 0.44119424 0.5806589 0.5753009
00000000: 70b1 3c3e 757c 8d3f 8a36 b53e eda8 1b3f
00000010: 95dd 063f 36e4 e13e 10a6 143f eb46 133f

l2.weight f4 [8, 8]
-0.7892884 0.80062664 -0.7041211 0.39876467 -0.99462193 -0.6036928 0.7341849 -0.55161864
-1.1022369 1.3203515 -0.19586116 0.15837431 1.293014 -0.12730339 -0.2398853 0.43093297
1.0827491 -0.10709235 0.52215797 0.67541075 -0.46222973 0.53040725 0.80615604 -0.48889542
0.72728175 -0.32921 0.98231 0.6803336 0.034495223 1.2916993 0.7321104 1.3281125
0.45351568 0.99095696 0.55010265 0.42001146 -1.2254164 -0.73480266 0.93953735 -0.8831133
-1.0603285 0.049799558 -0.6220251 1.3122529 -0.23472963 0.8372008 0.6866749 0.67908156
0.34967795 1.1421543 1.1494076 -0.8817379 0.9190778 0.16715531 -0.6920538 0.4497997
-0.016438501 0.42779785 0.4082426 1.0699706 -0.45005473 0.31685427 1.0833057 0.607508
00000000: ce0e 4abf def5 4c3f 4841 34bf e22a cc3e
00000010: 8b9f 7ebf 9d8b 1abf 8bf3 3b3f e136 0dbf
00000020: 1916 8dbf 4701 a93f d48f 48be e02c 223e
00000030: 7c81 a53f d25b 02be 7ea4 75be 3fa3 dc3e
00000040: 8697 8a3f 3c53 dbbd 25ac 053f b8e7 2c3f
00000050: 60a9 ecbe c5c8 073f 3e60 4e3f 8050 fabe
00000060: 232f 3a3f 378e a8be ab78 7b3f 582a 2e3f
00000070: dd4a 0d3d 6756 a53f 966b 3b3f 97ff a93f
00000080: 3533 e83e 5baf 7d3f 87d3 0c3f be0b d73e
00000090: 72da 9cbf 071c 3cbf 8585 703f b713 62bf
000000a0: d8b8 87bf 9ffa 4b3d 093d 1fbf e7f7 a73f
000000b0: f75c 70be cb52 563f edc9 2f3f 4ad8 2d3f
000000c0: fd08 b33e 1d32 923f ca1f 933f 93b9 61bf
000000d0: af48 6b3f c32a 2b3e 702a 31bf 254c e63e
000000e0: 09aa 86bc 5208 db3e 2d05 d13e ccf4 883f
000000f0: 936d e6be b93a a23e c3a9 8a3f a585 1b3f

l2.bias f4 [8]
0.6230353 0.8306034 -0.4202192 0.043766946 0.6541654 0.11785791 0.97103167 -0.11083117
00000000: 3e7f 1f3f 6da2 543f f926 d7be f844 333d
00000010: 6277 273f 7d5f f13d 8895 783f 74fb e2bd

l3.weight f4 [7, 8]
-0.9699549 -0.28815824 -0.45263606 0.44813028 -0.6993674 0.4796326 -1.1697495 0.5178273
-0.6585413 -1.0135422 -0.024220318 0.63404566 -0.5204897 -1.0605203 0.01990519 0.12862766
-0.77571565 0.28735512 -1.5268611 0.27457762 -0.63716173 0.044839695 0.25484768 0.1740443
0.79126537 -0.13344745 -0.49975345 -0.59561664 0.495755 0.78208965 -0.80451715 0.35669407
-0.5361898 -0.5246926 0.237579 -0.04971628 0.7278659 -1.5726557 -0.28886756 0.41430116
0.6170392 0.10732039 -1.5114437 -1.4718215 0.8998712 -1.0511298 0.49657038 -0.3321139
-1.1133108 0.89873093 -0.6458961 -1.4997714 -0.6182421 -1.5833853 0.8751187 -1.4243366
00000000: f74e 78bf 7a89 93be eabf e7be 5571 e53e
00000010: be09 33bf 6792 f53e 5aba 95bf 5490 043f
00000020: 2a96 28bf c0bb 81bf b069 c6bc d150 223f
00000030: d03e 05bf 21bf 87bf 3610 a33c f8b6 033e
00000040: 4d95 46bf 3620 933e 2f70 c3bf 7095 8c3e
00000050: 081d 23bf d4a9 373d 657b 823e ab38 323e
00000060: 5e90 4a3f 73a6 08be afdf ffbe 557a 18bf
00000070: 99d3 fd3e 0737 483f d6f4 4dbf 9ba0 b63e
00000080: bc43 09bf 4152 06bf e947 733e 4ca3 4bbd
00000090: 6b55 3a3f c84c c9bf 73e6 93be 481f d43e
000000a0: 48f6 1d3f cbca db3d fd76 c1bf a664 bcbf
000000b0: f55d 663f 6c8b 86bf 793e fe3e d50a aabe
000000c0: f880 8ebf 3b13 663f 7259 25bf 82f8 bfbf
000000d0: 1d45 1ebf 5fac cabf c707 603f a950 b6bf

l3.bias f4 [7]
-0.19359165 0.059732404 -0.17782436 0.032659154 -0.49083012 -0.18654601 0.38440564
00000000: e43c 46be f7a9 743d 9717 36be 9bc5 053d
00000010: 164e fbbe eb05 3fbe d1d0 c43e
